…
Transformer \u4e2d\u7684 Self-Attention\u3002\u5e76\u4e14 Encoder \u5728\u5806\u53e0\u65f6\u91c7\u7528\u4e86 Self-Attention Distilling\u3002</li> <li>Decoder \u540c\u6837\u63a5\u53d7\u957f\u5e8f\u5217\u8f93\u5165\uff0c\u9884\u6d4b\u90e8\u5206\u7528 0 \u8fdb\u884c padding\u3002\u7ed3\u679c\u5904\u7406\u540e\u76f4\u63a5\u8f93\u51fa\u6240\u6709\u9884\u6d4b\u7ed3\u679c\u3002</li> </ul> Python<pre><code># e_layer = 3, d_layer = 2\nInformer(\n  # encoder embedding\uff0c\u7f16\u7801\u5668\u7aef\u7684embedding\n  (enc_embedding): DataEmbedding(\n    (value_embedding): TokenEmbedding(\n      (tokenConv): Conv1d(7, 512, kernel_size=(3,), stride=(1,), padding=(1,), padding_mode=circular)\n    )\n    (position_embedding): PositionalEmbedding()\n    (temporal_embedding): TimeFeatureEmbedding(\n      (embed): Linear(in_features=4, out_features=512, bias=True)\n    )\n    (dropout): Dropout(p=0.05, inplace=False)\n  )\n  # decoder embedding\uff0c\u89e3\u7801\u7aef\u7684embedding\n  (dec_embedding): DataEmbedding(\n    (value_embedding): TokenEmbedding(\n      (tokenConv): Conv1d(7, 512, kernel_size=(3,), stride=(1,), padding=(1,), padding_mode=circular)\n    )\n    (position_embedding): PositionalEmbedding()\n    (temporal_embedding): TimeFeatureEmbedding(\n      (embed): Linear(in_features=4, out_features=512, bias=True)\n    )\n    (dropout): Dropout(p=0.05, inplace=False)\n  )\n  # encoder\u90e8\u5206\n  (encoder): Encoder(\n    (attn_layers): ModuleList(\n      # \u4e09\u4e2a\u5305\u88c5\u6ce8\u610f\u529b\u7684encoderlayer\uff0c\u5e26\u7740conv1/conv2\n      (0,1,2): EncoderLayer(\n        (attention): AttentionLayer(\n          (inner_attention): ProbAttention(\n            (dropout): Dropout(p=0.05, inplace=False)\n          )\n          (query_projection): Linear(in_features=512, out_features=512, bias=True)\n          (key_projection): Linear(in_features=512, out_features=512, bias=True)\n          (value_projection): Linear(in_features=512, out_features=512, bias=True)\n          (out_projection): Linear(in_features=512, out_features=512, bias=True)\n        )\n        (conv1): Conv1d(512, 2048, kernel_size=(1,), stride=(1,))\n        (conv2): Conv1d(2048, 512, kernel_size=(1,), stride=(1,))\n        (norm1): LayerNorm((512,), eps=1e-05, elementwise_affine=True)\n        (norm2): LayerNorm((512,), eps=1e-05, elementwise_affine=True)\n        (dropout): Dropout(p=0.05, inplace=False)\n      )\n    )\n    # 2\u4e2a\u5377\u79ef\u5c42\n    (conv_layers): ModuleList(\n      (0,1): ConvLayer(\n        (downConv): Conv1d(512, 512, kernel_size=(3,), stride=(1,), padding=(1,), padding_mode=circular)\n        (norm): BatchNorm1d(512, eps=1e-05, momentum=0.1, affine=True, track_running_stats=True)\n        (activation): ELU(alpha=1.0)\n        (maxPool): MaxPool1d(kernel_size=3, stride=2, padding=1, dilation=1, ceil_mode=False)\n      )\n    )\n    (norm): LayerNorm((512,), eps=1e-05, elementwise_affine=True)\n  )\n  (decoder): Decoder(\n    (layers): ModuleList(\n      (0,1): DecoderLayer(\n        (self_attention): AttentionLayer(\n          (inner_attention): ProbAttention(\n            (dropout): Dropout(p=0.05, inplace=False)\n          )\n          (query_projection): Linear(in_features=512, out_features=512, bias=True)\n          (key_projection): Linear(in_features=512, out_features=512, bias=True)\n          (value_projection): Linear(in_features=512, out_features=512, bias=True)\n          (out_projection): Linear(in_features=512, out_features=512, bias=True)\n        )\n        (cross_attention): AttentionLayer(\n          (inner_attention): FullAttention(\n            (dropout): Dropout(p=0.05, inplace=False)\n          )\n          (query_projection): Linear(in_features=512, out_features=512, bias=True)\n          (key_projection): Linear(in_features=512, out_features=512, bias=True)\n          (value_projection): Linear(in_features=512, out_features=512, bias=True)\n          (out_projection): Linear(in_features=512, out_features=512, bias=True)\n        )\n        (conv1): Conv1d(512, 2048, kernel_size=(1,), stride=(1,))\n        (conv2): Conv1d(2048, 512, kernel_size=(1,), stride=(1,))\n        (norm1): LayerNorm((512,), eps=1e-05, elementwise_affine=True)\n        (norm2): LayerNorm((512,), eps=1e-05, elementwise_affine=True)\n        (norm3): LayerNorm((512,), eps=1e-05, elementwise_affine=True)\n        (dropout): Dropout(p=0.05, inplace=False)\n      )\n    )\n    (norm): LayerNorm((512,), eps=1e-05, elementwise_affine=True)\n  )\n  (projection): Linear(in_features=512, out_features=7, bias=True)\n)\n</code></pre> Python<pre><code># enc_embedding\ndef forward(self, x, x_mark):\n    #x[32,96,7],x_mark[32,96,4]\n    x = self.value_embedding(x) + self.position_embedding(x) + self.temporal_embedding(x_mark)\n    \"\"\"\n    value_embedding x[32,96,512]\n    position_embedding x[1,96,512]\n    temporal_embedding x[32,96,512]\n    \"\"\"\n    return se
…
